ModuleEQLNet(
  (explained_layers): ModuleList(
    (0): SRLayer(
      (model): ImageSRModule(
        (sr_model): ImageEQL(
          (layers): ModuleList(
            (0): Linear(in_features=361, out_features=10, bias=True)
            (1): Linear(in_features=369, out_features=10, bias=True)
            (2): Linear(in_features=369, out_features=10, bias=True)
            (3): Linear(in_features=369, out_features=6, bias=True)
          )
        )
      )
    )
    (1): SRLayer(
      (model): ImageSRModule(
        (sr_model): ImageEQL(
          (layers): ModuleList(
            (0): Linear(in_features=100, out_features=10, bias=True)
            (1): Linear(in_features=108, out_features=10, bias=True)
            (2): Linear(in_features=108, out_features=10, bias=True)
            (3): Linear(in_features=108, out_features=16, bias=True)
          )
        )
      )
    )
    (2): SRLayer(
      (model): LinearSRModule(
        (sr_model): EQL(
          (layers): ModuleList(
            (0): Linear(in_features=400, out_features=8, bias=True)
            (1): Linear(in_features=406, out_features=8, bias=True)
            (2): Linear(in_features=406, out_features=8, bias=True)
            (3): Linear(in_features=406, out_features=1, bias=True)
          )
        )
        (proj): Linear(in_features=1, out_features=10, bias=True)
      )
    )
  )
)
total steps: 590
train n batch: 118
srnet # layers: 3
SRNet-0 layer training:   0%|          | 0/5 [00:00<?, ?it/s]/home/luoyuanzhen/anaconda3/lib/python3.9/site-packages/torch/nn/functional.py:1967: UserWarning: nn.functional.sigmoid is deprecated. Use torch.sigmoid instead.
  warnings.warn("nn.functional.sigmoid is deprecated. Use torch.sigmoid instead.")
…
, step_loss=1.34]SRNet-0 layer training:  80%|████████  | 4/5 [1:04:33<12:55, 775.96s/it, avg_loss=1.33, best_loss=1.33, step_loss=1.34]SRNet-0 layer training:  80%|████████  | 4/5 [1:04:39<12:55, 775.96s/it, avg_loss=1.33, train_loss=1.33, val_loss=0.677]SRNet-0 layer training: 100%|██████████| 5/5 [1:04:39<00:00, 775.89s/it, avg_loss=1.33, train_loss=1.33, val_loss=0.677]SRNet-0 layer training: 100%|██████████| 5/5 [1:04:39<00:00, 775.91s/it, avg_loss=1.33, train_loss=1.33, val_loss=0.677]
SRLayer(
  (model): ImageSRModule(
    (sr_model): ImageEQL(
      (layers): ModuleList(
        (0): Linear(in_features=361, out_features=10, bias=True)
        (1): Linear(in_features=369, out_features=10, bias=True)
        (2): Linear(in_features=369, out_features=10, bias=True)
        (3): Linear(in_features=369, out_features=6, bias=True)
      )
    )
  )
)
Sequential(
  (0): Conv2d(1, 6, kernel_size=(5, 5), stride=(1, 1))
  (1): BatchNorm2d(6, eps=1e-05, momentum=0.1, affine=True, track_running_stats=True)
  (2): ReLU()
  (3): MaxPool2d(kernel_size=2, stride=2, padding=0, dilation=1, ceil_mode=False)
)
SRNet-1 layer training:   0%|          | 0/5 [00:00<?, ?it/s]SRNet-1 layer training:   0%|          | 0/5 [00:00<?, ?it/s, avg_loss=1.94, best_loss=1.94, step_loss=1.94]SRNet-1 layer training:   0%|          | 0/5 [00:00<?, ?it/s, a
…
st_loss=1.33, step_loss=1.33]SRNet-1 layer training:  80%|████████  | 4/5 [03:19<00:40, 40.20s/it, avg_loss=1.33, best_loss=1.33, step_loss=1.33]SRNet-1 layer training:  80%|████████  | 4/5 [03:21<00:40, 40.20s/it, avg_loss=1.33, train_loss=1.33, val_loss=0.639]SRNet-1 layer training: 100%|██████████| 5/5 [03:21<00:00, 40.23s/it, avg_loss=1.33, train_loss=1.33, val_loss=0.639]SRNet-1 layer training: 100%|██████████| 5/5 [03:21<00:00, 40.21s/it, avg_loss=1.33, train_loss=1.33, val_loss=0.639]
SRLayer(
  (model): ImageSRModule(
    (sr_model): ImageEQL(
      (layers): ModuleList(
        (0): Linear(in_features=100, out_features=10, bias=True)
        (1): Linear(in_features=108, out_features=10, bias=True)
        (2): Linear(in_features=108, out_features=10, bias=True)
        (3): Linear(in_features=108, out_features=16, bias=True)
      )
    )
  )
)
Sequential(
  (0): Conv2d(6, 16, kernel_size=(5, 5), stride=(1, 1))
  (1): BatchNorm2d(16, eps=1e-05, momentum=0.1, affine=True, track_running_stats=True)
  (2): ReLU()
  (3): MaxPool2d(kernel_size=2, stride=2, padding=0, dilation=1, ceil_mode=False)
)
SRNet-2 layer training:   0%|          | 0/5 [00:00<?, ?it/s]SRNet-2 layer training:   0%|          | 0/5 [00:00<?, ?it/s, avg_loss=1.86, best_loss=1.86, step_loss=1.86]SRNet-2 layer training:   0%|          | 0/5 [00:00<?, ?it/s, 
…
.04, best_loss=1.03, step_loss=1.09]SRNet-2 layer training:  80%|████████  | 4/5 [00:54<00:11, 11.12s/it, avg_loss=1.04, best_loss=1.03, step_loss=1.07]SRNet-2 layer training:  80%|████████  | 4/5 [00:55<00:11, 11.12s/it, avg_loss=1.04, train_loss=1.03, val_acc=0.558]SRNet-2 layer training: 100%|██████████| 5/5 [00:55<00:00, 11.14s/it, avg_loss=1.04, train_loss=1.03, val_acc=0.558]SRNet-2 layer training: 100%|██████████| 5/5 [00:55<00:00, 11.13s/it, avg_loss=1.04, train_loss=1.03, val_acc=0.558]
SRLayer(
  (model): LinearSRModule(
    (sr_model): EQL(
      (layers): ModuleList(
        (0): Linear(in_features=400, out_features=8, bias=True)
        (1): Linear(in_features=406, out_features=8, bias=True)
        (2): Linear(in_features=406, out_features=8, bias=True)
        (3): Linear(in_features=406, out_features=1, bias=True)
      )
    )
    (proj): Linear(in_features=1, out_features=10, bias=True)
  )
)
Sequential(
  (0): Linear(in_features=400, out_features=120, bias=True)
  (1): ReLU()
  (2): Linear(in_features=120, out_features=84, bias=True)
  (3): ReLU()
  (4): Linear(in_features=84, out_features=10, bias=True)
)
