ModuleEQLNet(
  (explained_layers): ModuleList(
    (0): SRLayer(
      (model): ImageSRModule(
        (sr_model): ImageEQL(
          (layers): ModuleList(
            (0): Linear(in_features=361, out_features=10, bias=True)
            (1): Linear(in_features=369, out_features=10, bias=True)
            (2): Linear(in_features=369, out_features=10, bias=True)
            (3): Linear(in_features=369, out_features=6, bias=True)
          )
        )
      )
    )
    (1): SRLayer(
      (model): ImageSRModule(
        (sr_model): ImageEQL(
          (layers): ModuleList(
            (0): Linear(in_features=100, out_features=10, bias=True)
            (1): Linear(in_features=108, out_features=10, bias=True)
            (2): Linear(in_features=108, out_features=10, bias=True)
            (3): Linear(in_features=108, out_features=16, bias=True)
          )
        )
      )
    )
    (2): SRLayer(
      (model): LinearSRModule(
        (sr_model): EQL(
          (layers): ModuleList(
            (0): Linear(in_features=400, out_features=8, bias=True)
            (1): Linear(in_features=406, out_features=8, bias=True)
            (2): Linear(in_features=406, out_features=8, bias=True)
            (3): Linear(in_features=406, out_features=1, bias=True)
          )
        )
        (proj): Linear(in_features=1, out_features=10, bias=True)
      )
    )
  )
)
total steps: 590
train n batch: 118
srnet # layers: 3
SRNet-2 layer training:   0%|          | 0/5 [00:00<?, ?it/s]SRNet-2 layer training:   0%|          | 0/5 [00:00<?, ?it/s, avg_loss=1.92, best_loss=1.92, step_loss=1.92]SRNet-2 layer training:   0%|          | 0/5 [00:00<?, ?it/s, avg_loss=1.92, best_loss=1.92, step_loss=1.92]SR
…
1.19, best_loss=1.18, step_loss=1.23]SRNet-2 layer training:  20%|██        | 1/5 [00:15<00:43, 10.86s/it, avg_loss=1.19, best_loss=1.18, step_loss=1.2] SRNet-2 layer training:  20%|██        | 1/5 [00:15<00:43, 10.86s/it, avg_loss=1.19, best_loss=1.18, step_loss=1.21]SRNet-2 layer training:  20%|██        | 1/5 [00:15<00:43, 10.86s/it, avg_loss=1.19, best_loss=1.18, step_loss=1.2] SRNet-2 layer training:  20%|██        | 1/5 [00:15<00:43, 10.86s/it, avg_loss=1.19, best_loss=1.18, step_loss=1.23]SRLayer(
  (model): LinearSRModule(
    (sr_model): EQL(
      (layers): ModuleList(
        (0): Linear(in_features=400, out_features=8, bias=True)
        (1): Linear(in_features=406, out_features=8, bias=True)
        (2): Linear(in_features=406, out_features=8, bias=True)
        (3): Linear(in_features=406, out_features=1, bias=True)
      )
    )
    (proj): Linear(in_features=1, out_features=10, bias=True)
  )
)
Sequential(
  (0): Linear(in_features=400, out_features=120, bias=True)
  (1): ReLU()
  (2): Linear(in_features=120, out_features=84, bias=True)
  (3): ReLU()
  (4): Linear(in_features=84, out_features=10, bias=True)
)
layer input shape: torch.Size([512, 400])
layer input shape: torch.Size([512, 400])
layer input shape: torch.Size([512, 400])
layer input shape: torch.Size([512, 400])
layer input shape: torch.Size([512, 400])
layer input shape: torch.Size([512, 400])
layer input shape: torch.Size([512, 400])
layer input shape: torch.Size([512, 400])
layer input shape: torch.Size([512, 400])
…
