ModuleEQLNet(
  (explained_layers): ModuleList(
    (0): SRLayer(
      (model): ImageSRModule(
        (sr_model): ImageEQL(
          (layers): ModuleList(
            (0): Linear(in_features=361, out_features=10, bias=True)
            (1): Linear(in_features=369, out_features=10, bias=True)
            (2): Linear(in_features=369, out_features=10, bias=True)
            (3): Linear(in_features=369, out_features=6, bias=True)
          )
        )
      )
    )
    (1): SRLayer(
      (model): ImageSRModule(
        (sr_model): ImageEQL(
          (layers): ModuleList(
            (0): Linear(in_features=100, out_features=10, bias=True)
            (1): Linear(in_features=108, out_features=10, bias=True)
            (2): Linear(in_features=108, out_features=10, bias=True)
            (3): Linear(in_features=108, out_features=16, bias=True)
          )
        )
      )
    )
    (2): SRLayer(
      (model): LinearSRModule(
        (sr_model): EQL(
          (layers): ModuleList(
            (0): Linear(in_features=400, out_features=8, bias=True)
            (1): Linear(in_features=406, out_features=8, bias=True)
            (2): Linear(in_features=406, out_features=8, bias=True)
            (3): Linear(in_features=406, out_features=1, bias=True)
          )
        )
        (proj): Linear(in_features=1, out_features=10, bias=True)
      )
    )
  )
)
srnet # layers: 3
SRNet training:   0%|          | 0/100 [00:00<?, ?it/s]SRNet training:   0%|          | 0/100 [00:01<?, ?it/s, avg_loss=3.72, best_loss=3.72, step_loss=3.72]SRNet training:   0%|          | 0/100 [00:02<?, ?it/s, avg_loss=3.72, best_loss=3.71, step_loss=3.71]SRNet training:   0%|          | 0/100 [00:03<?, ?it/s, 
…
